…
ng, and prefetching\n\n\n\nPart B: Building CNN from Scratch (40 minutes)\nDesign CNN Architecture - Start with simple 3-block architecture - Understand layer choices and progression - Calculate output dimensions at each layer - Visualize network architecture diagram\nImplementation Details:\n# Example architecture (you'll implement in notebook)\nModel: \"eurosat_cnn\"\n_________________________________________________________________\nLayer (type)                Output Shape              Param #   \n=================================================================\nconv2d_1 (Conv2D)          (None, 62, 62, 32)        896       \nactivation_1 (ReLU)        (None, 62, 62, 32)        0         \nmax_pooling2d_1            (None, 31, 31, 32)        0         \nconv2d_2 (Conv2D)          (None, 29, 29, 64)        18,496    \nactivation_2 (ReLU)        (None, 29, 29, 64)        0         \nmax_pooling2d_2            (None, 14, 14, 64)        0         \nconv2d_3 (Conv2D)          (None, 12, 12, 128)       73,856    \nactivation_3 (ReLU)        (None, 12, 12, 128)       0         \nmax_pooling2d_3            (None, 6, 6, 128)         0         \nflatten (Flatten)          (None, 4608)              0         \ndropout (Dropout)          (None, 4608)              0         \ndense_1 (Dense)            (None, 128)               589,952   \nactivation_4 (ReLU)        (None, 128)               0         \ndropout_2 (Dropout)        (None, 128)               0         \ndense_2 (Dense)            (None, 10)                1,290     \nactivation_5 (Softmax)     (None, 10)                0         \n=================================================================\nTotal params: 684,490\nTrainable params: 684,490\nNon-trainable params: 0\nKey Architectural Decisions: - Filter progression (32→64→128): Capture features at multiple scales - 3×3 convolutions: Standard choice balancing receptive field and parameters - MaxPooling: Spatial dimension reduction and translation invariance - 
…
