…
- Configure batching, shuffling, and prefetching

---

### Part B: Building CNN from Scratch (40 minutes)

**Design CNN Architecture**
- Start with simple 3-block architecture
- Understand layer choices and progression
- Calculate output dimensions at each layer
- Visualize network architecture diagram

**Implementation Details:**

```python
# Example architecture (you'll implement in notebook)
Model: "eurosat_cnn"
_________________________________________________________________
Layer (type)                Output Shape              Param #   
=================================================================
conv2d_1 (Conv2D)          (None, 62, 62, 32)        896       
activation_1 (ReLU)        (None, 62, 62, 32)        0         
max_pooling2d_1            (None, 31, 31, 32)        0         
conv2d_2 (Conv2D)          (None, 29, 29, 64)        18,496    
activation_2 (ReLU)        (None, 29, 29, 64)        0         
max_pooling2d_2            (None, 14, 14, 64)        0         
conv2d_3 (Conv2D)          (None, 12, 12, 128)       73,856    
activation_3 (ReLU)        (None, 12, 12, 128)       0         
max_pooling2d_3            (None, 6, 6, 128)         0         
flatten (Flatten)          (None, 4608)              0         
dropout (Dropout)          (None, 4608)              0         
dense_1 (Dense)            (None, 128)               589,952   
activation_4 (ReLU)        (None, 128)               0         
dropout_2 (Dropout)        (None, 128)               0         
dense_2 (Dense)            (None, 10)                1,290     
activation_5 (Softmax)     (None, 10)                0         
=================================================================
Total params: 684,490
Trainable params: 684,490
Non-trainable params: 0
```

**Key Architectural Decisions:**
- **Filter progression (32→64→128):** Capture features at multiple scales
- **3×3 convolutions:** Standard choice balancing receptive field and parameters
- **MaxPooling:** Spatial dimension reduction and translation invariance
…
